…
04:06:47, 258 datasets.arrow_dataset WARNING Loading cached processed dataset at /home/CE/pinjie/.cache/huggingface/datasets/php_de_en/PHPDeEn/0.0.0/78820f3745e00bb4a9fe7816fbbb6a63a1a8ec59722a8d9120d28cb2ebd8d403/cache-818ae1624fce8150.arrow
04:06:47, 445 datasets.arrow_dataset WARNING Loading cached processed dataset at /home/CE/pinjie/.cache/huggingface/datasets/php_de_en/PHPDeEn/0.0.0/78820f3745e00bb4a9fe7816fbbb6a63a1a8ec59722a8d9120d28cb2ebd8d403/cache-ac2f163e49ab91a2.arrow
04:06:50, 968 root INFO TransformerEncoder(
  (enc_layers): ModuleList(
    (0): TransformerEncLayer(
      (mha): MultiHeadAttention(
        (w_q): Linear(in_features=128, out_features=128, bias=True)
        (w_k): Linear(in_features=128, out_features=128, bias=True)
        (w_v): Linear(in_features=128, out_features=128, bias=True)
      )
      (ffn): FeedForwardBlock(
        (dense1): Linear(in_features=128, out_features=512, bias=True)
        (relu): ReLU()
        (dense2): Linear(in_features=512, out_features=128, bias=True)
      )
      (layernorm1): LayerNorm((128,), eps=1e-06, elementwise_affine=True)
      (layernorm2): LayerNorm((128,), eps=1e-06, elementwise_affine=True)
      (dropout1): Dropout(p=0.1, inplace=False)
      (dropout2): Dropout(p=0.1, inplace=False)
    )
    (1): TransformerEncLayer(
      (mha): MultiHeadAttention(
        (w_q): Linear(in_features=128, out_features=128, bias=True)
        (w_k): Linear(in_features=128, out_features=128, bias=True)
        (w_v): Linear(in_features=128, out_features=128, bias=True)
      )
      (ffn): FeedForwardBlock(
        (dense1): Linear(in_features=128, out_features=512, bias=True)
        (relu): ReLU()
        (dense2): Linear(in_features=512, out_features=128, bias=True)
      )
      (layernorm1): LayerNorm((128,), eps=1e-06, elementwise_affine=True)
      (layernorm2): LayerNorm((128,), eps=1e-06, elementwise_affine=True)
      (dropout1): Dropout(p=0.1, inplace=False)
      (dropout2): Dropout(p=0.1, inplace=False)
    )
    (2): TransformerEncLayer(
      (mha): MultiHeadAttention(
        (w_q): Linear(in_features=128, out_features=128, bias=True)
        (w_k): Linear(in_features=128, out_features=128, bias=True)
        (w_v): Linear(in_features=128, out_features=128, bias=True)
      )
      (ffn): FeedForwardBlock(
        (dense1): Linear(in_features=128, out_features=512, bias=True)
        (relu): ReLU()
        (dense2): Linear(in_features=512, out_features=128, bias=True)
      )
      (layernorm1): LayerNorm((128,), eps=1e-06, elementwise_affine=True)
      (layernorm2): LayerNorm((128,), eps=1e-06, elementwise_affine=True)
      (dropout1): Dropout(p=0.1, inplace=False)
      (dropout2): Dropout(p=0.1, inplace=False)
    )
    (3): TransformerEncLayer(
      (mha): MultiHeadAttention(
        (w_q): Linear(in_features=128, out_features=128, bias=True)
        (w_k): Linear(in_features=128, out_features=128, bias=True)
        (w_v): Linear(in_features=128, out_features=128, bias=True)
      )
      (ffn): FeedForwardBlock(
        (dense1): Linear(in_features=128, out_features=512, bias=True)
        (relu): ReLU()
        (dense2): Linear(in_features=512, out_features=128, bias=True)
      )
      (layernorm1): LayerNorm((128,), eps=1e-06, elementwise_affine=True)
      (layernorm2): LayerNorm((128,), eps=1e-06, elementwise_affine=True)
      (dropout1): Dropout(p=0.1, inplace=False)
      (dropout2): Dropout(p=0.1, inplace=False)
    )
  )
  (dropout): Dropout(p=0.1, inplace=False)
)
04:06:50, 975 root INFO epoch 1 : 
04:06:51, 162 root INFO Model: generator, Step: 0, Loss: 9.48, Accuracy: 0.00
04:06:52, 84 root INFO Model: generator, Step: 10, Loss: 9.45, Accuracy: 0.00
04:06:53, 16 root INFO Model: generator, Step: 20, Loss: 9.36, Accuracy: 0.00
…
